divice cuda:0
start
test_mode: False
is_continuous: False
n_episode: 2000
start_time: 2023-12-13 12:29:04 PM
The shape of an observation:  (3, 84, 84)
the shape of action_space: 5
----------------------------------------------------------------
        Layer (type)               Output Shape         Param #
================================================================
            Conv2d-1           [-1, 64, 42, 42]           9,408
       BatchNorm2d-2           [-1, 64, 42, 42]             128
              ReLU-3           [-1, 64, 42, 42]               0
         MaxPool2d-4           [-1, 64, 21, 21]               0
            Conv2d-5           [-1, 64, 21, 21]          36,864
       BatchNorm2d-6           [-1, 64, 21, 21]             128
              ReLU-7           [-1, 64, 21, 21]               0
            Conv2d-8           [-1, 64, 21, 21]          36,864
       BatchNorm2d-9           [-1, 64, 21, 21]             128
             ReLU-10           [-1, 64, 21, 21]               0
       BasicBlock-11           [-1, 64, 21, 21]               0
           Conv2d-12           [-1, 64, 21, 21]          36,864
      BatchNorm2d-13           [-1, 64, 21, 21]             128
             ReLU-14           [-1, 64, 21, 21]               0
           Conv2d-15           [-1, 64, 21, 21]          36,864
      BatchNorm2d-16           [-1, 64, 21, 21]             128
             ReLU-17           [-1, 64, 21, 21]               0
       BasicBlock-18           [-1, 64, 21, 21]               0
           Conv2d-19          [-1, 128, 11, 11]          73,728
      BatchNorm2d-20          [-1, 128, 11, 11]             256
             ReLU-21          [-1, 128, 11, 11]               0
           Conv2d-22          [-1, 128, 11, 11]         147,456
      BatchNorm2d-23          [-1, 128, 11, 11]             256
           Conv2d-24          [-1, 128, 11, 11]           8,192
      BatchNorm2d-25          [-1, 128, 11, 11]             256
             ReLU-26          [-1, 128, 11, 11]               0
       BasicBlock-27          [-1, 128, 11, 11]               0
           Conv2d-28          [-1, 128, 11, 11]         147,456
      BatchNorm2d-29          [-1, 128, 11, 11]             256
             ReLU-30          [-1, 128, 11, 11]               0
           Conv2d-31          [-1, 128, 11, 11]         147,456
      BatchNorm2d-32          [-1, 128, 11, 11]             256
             ReLU-33          [-1, 128, 11, 11]               0
       BasicBlock-34          [-1, 128, 11, 11]               0
           Conv2d-35            [-1, 256, 6, 6]         294,912
      BatchNorm2d-36            [-1, 256, 6, 6]             512
             ReLU-37            [-1, 256, 6, 6]               0
           Conv2d-38            [-1, 256, 6, 6]         589,824
      BatchNorm2d-39            [-1, 256, 6, 6]             512
           Conv2d-40            [-1, 256, 6, 6]          32,768
      BatchNorm2d-41            [-1, 256, 6, 6]             512
             ReLU-42            [-1, 256, 6, 6]               0
       BasicBlock-43            [-1, 256, 6, 6]               0
           Conv2d-44            [-1, 256, 6, 6]         589,824
      BatchNorm2d-45            [-1, 256, 6, 6]             512
             ReLU-46            [-1, 256, 6, 6]               0
           Conv2d-47            [-1, 256, 6, 6]         589,824
      BatchNorm2d-48            [-1, 256, 6, 6]             512
             ReLU-49            [-1, 256, 6, 6]               0
       BasicBlock-50            [-1, 256, 6, 6]               0
           Conv2d-51            [-1, 512, 3, 3]       1,179,648
      BatchNorm2d-52            [-1, 512, 3, 3]           1,024
             ReLU-53            [-1, 512, 3, 3]               0
           Conv2d-54            [-1, 512, 3, 3]       2,359,296
      BatchNorm2d-55            [-1, 512, 3, 3]           1,024
           Conv2d-56            [-1, 512, 3, 3]         131,072
      BatchNorm2d-57            [-1, 512, 3, 3]           1,024
             ReLU-58            [-1, 512, 3, 3]               0
       BasicBlock-59            [-1, 512, 3, 3]               0
           Conv2d-60            [-1, 512, 3, 3]       2,359,296
      BatchNorm2d-61            [-1, 512, 3, 3]           1,024
             ReLU-62            [-1, 512, 3, 3]               0
           Conv2d-63            [-1, 512, 3, 3]       2,359,296
      BatchNorm2d-64            [-1, 512, 3, 3]           1,024
             ReLU-65            [-1, 512, 3, 3]               0
       BasicBlock-66            [-1, 512, 3, 3]               0
AdaptiveAvgPool2d-67            [-1, 512, 1, 1]               0
           Linear-68                  [-1, 512]         262,656
           ResNet-69                  [-1, 512]               0
           Linear-70                  [-1, 256]         131,328
           Linear-71                    [-1, 5]           1,285
================================================================
Total params: 11,571,781
Trainable params: 11,571,781
Non-trainable params: 0
----------------------------------------------------------------
Input size (MB): 0.08
Forward/backward pass size (MB): 9.41
Params size (MB): 44.14
Estimated Total Size (MB): 53.63
----------------------------------------------------------------
None
n_episode :20, score : -0.043, n_buffer : 5250, eps : 7.9%, step : 250, time : 0:00:08
…
